…
DEBUG:root:Appending test set for data_speech_commands
DEBUG:root:Appending validation set for data_speech_commands
DEBUG:root:Appending train set for data_speech_commands
DEBUG:root:Resizing test set
DEBUG:root:Resizing validation set
DEBUG:root:Resizing training set
DEBUG:root:Finalizing sets
DEBUG:root:Building CNN
DEBUG:root:Building Model
DEBUG:root:Building Model...
_________________________________________________________________
Layer (type)                 Output Shape              Param #   
=================================================================
input_1 (InputLayer)         (None, 129, 71, 1)        0         
_________________________________________________________________
conv2d_1 (Conv2D)            (None, 120, 65, 8)        568       
_________________________________________________________________
max_pooling2d_1 (MaxPooling2 (None, 17, 13, 8)         0         
_________________________________________________________________
batch_normalization_1 (Batch (None, 17, 13, 8)         32        
_________________________________________________________________
conv2d_2 (Conv2D)            (None, 11, 9, 256)        71936     
_________________________________________________________________
max_pooling2d_2 (MaxPooling2 (None, 2, 3, 256)         0         
_________________________________________________________________
batch_normalization_2 (Batch (None, 2, 3, 256)         1024      
_________________________________________________________________
flatten_1 (Flatten)          (None, 1536)              0         
_________________________________________________________________
dense_1 (Dense)              (None, 64)                98368     
_________________________________________________________________
dropout_1 (Dropout)          (None, 64)                0         
_________________________________________________________________
dense_2 (Dense)              (None, 5)                 325       
_________________________________________________________________
reshape_1 (Reshape)          (None, 5, 1)              0         
_________________________________________________________________
max_pooling1d_1 (MaxPooling1 (None, 5, 1)              0         
=================================================================
Total params: 172,253
Trainable params: 171,725
Non-trainable params: 528
_________________________________________________________________
DEBUG:root:Setting up validation sequence...
DEBUG:root:Setting up training sequence...
DEBUG:root:Starting training...
Epoch 1/100
121/121 [==============================] - 123s 1s/step - loss: 0.2607 - acc: 0.7443 - mean_squared_error: 0.2607 - val_loss: 0.3708 - val_acc: 0.6828 - val_mean_squared_error: 0.3708
…
